Lukas/models/model_epoch_56.pth (torch_old, 356343 bytes, 26 tensors)

conv1.weight f4 [3, 2, 3]
0	0x3cd257ab	0.025676569
1	0xbc183a95	-0.009291311
2	0xbe5e27c3	-0.21694855
3	0x3df63dbe	0.12023495
4	0xbed718ad	-0.42011014
5	0xbee45ffe	-0.44604486
6	0x3b85b461	0.0040803407
7	0xbbdcc912	-0.0067378366
8	0x3e876703	0.2644578
9	0xbd82afdf	-0.06381201
10	0x3ee0bd2c	0.43894327
11	0x3ebffa15	0.37495485
12	0x3ee1e1fd	0.44117728
13	0xbe2755d0	-0.16341329
14	0x3f5e5af9	0.86857563
15	0xbde9d24b	-0.11417063
16	0x3d3fc784	0.046821132
17	0xbc9d52fd	-0.019204611

conv1.bias f4 [3]
0	0xbf09b06c	-0.53784823
1	0x3eca4174	0.39503062
2	0xbf86169b	-1.0475649

conv2.weight f4 [32, 3, 3]
0	0xbc0f055d	-0.008729306
1	0xbeff2b22	-0.49837595
2	0xbe50aabe	-0.20377633
3	0xbf453641	-0.7703591
4	0xbeaa02de	-0.33205312
5	0xbe99c597	-0.30033562
6	0xbdef120c	-0.11673364
7	0xbd1ce2e4	-0.038302317
8	0xbf0d98ce	-0.55311286
9	0xbf199524	-0.59993196
10	0xbf45c251	-0.7724963
11	0xbeb82603	-0.359665
12	0x3baeb591	0.005331703
13	0xbe830078	-0.25586295
14	0xbf0fe49e	-0.5620822
15	0xbf654576	-0.89559114
16	0xbf8172d2	-1.0113165
17	0x3f91be90	1.138628
18	0xbe280bca	-0.16410747
19	0xbe3016f5	-0.17196257
20	0xbe8b33ac	-0.2718786
21	0x3d4c854a	0.0499318
22	0x3d9c5280	0.07632923
23	0xbd248922	-0.040169843
24	0xbe37af24	-0.17937905
25	0xbe8f7cb1	-0.2802482
26	0xbea7439c	-0.3266877
27	0x3dc56b77	0.09639638
28	0xbe6e8483	-0.23292737
29	0xbee7d6d9	-0.45281103
30	0xbeeba275	-0.46022382
31	0xbec84ded	-0.39121953
32	0xbc964425	-0.01834304
33	0xbe2614ef	-0.16218923
34	0x3cab040a	0.02087595
35	0x3d4f6d0a	0.050641097
36	0xbe503fc7	-0.20336829
37	0xbc188624	-0.009309325
38	0xbeb47d46	-0.35251826
39	0xbd80bebe	-0.06286381
40	0xbe94cb59	-0.29061392
41	0xbc218698	-0.00985875
42	0xbe57d931	-0.21078946
43	0x3dc1f5f0	0.09470737
44	0xbe6e4166	-0.23267135
45	0x3d19a4e7	0.03751078
46	0xbf030a72	-0.51187813
47	0xbf7596e3	-0.9593336
48	0xbf2423dd	-0.64117223
49	0xbe802eb0	-0.2503562
50	0xbf03f56b	-0.51546353
51	0x3e37c4f5	0.17946227
52	0xbf079c16	-0.52972543
53	0xbf3917d6	-0.72301996
54	0xbee6b8cb	-0.4506286
55	0xbe936b1c	-0.28792655
56	0xbdea4b18	-0.11440104
57	0xbe148f27	-0.14507733
58	0x3ccb9a35	0.024853805
59	0xbe78ecb9	-0.24309053
60	0xbe93562f	-0.2877669
61	0xbaf9badd	-0.0019052882
62	0xbe8dbb24	-0.2768184
63	0x3df3fd98	0.119136035
64	0x3d0feb16	0.035136305
65	0x3d8fc1ae	0.07019363
66	0xbeee48dd	-0.46539965
67	0xbf9b795b	-1.214641
68	0xbe9aeb1f	-0.30257508
69	0x3f7d095d	0.9884241
70	0xbede132b	-0.43374
71	0xbea06fcc	-0.31335294
72	0x3d4222d4	0.047396496
73	0xbea9f404	-0.33193982
74	0xbef799bf	-0.48359486
75	0xbda28a91	-0.07936586
76	0xbf00c4d9	-0.50300366
77	0xbee98d5f	-0.4561567
78	0xbefded5f	-0.49595162
79	0xbed57a10	-0.4169469
80	0xbea2f9ec	-0.318313
81	0xbe43ac96	-0.19108805
82	0xbe8cd2db	-0.2750462
83	0xbe9bb442	-0.30410963
84	0xbf1c3a0a	-0.6102606
85	0xbf3e6fbd	-0.7438925
86	0xbeb4791a	-0.35248643
87	0xbe58bc11	-0.21165492
88	0xbde29520	-0.110635996
89	0x3d2688bd	0.040657748
90	0xbddaa1a8	-0.10675365
91	0xbd780d9e	-0.06055986
92	0xbecd418b	-0.40089068
93	0xbec73636	-0.38908547
94	0xbe20c27a	-0.15699187
95	0x3d5cba59	0.053888652
96	0xbee47d6e	-0.44626945
97	0xbea96e67	-0.33092043
98	0xbdf77141	-0.12082148
99	0x3a722800	0.0009237528
100	0xbdfe05c0	-0.124034405
101	0xbcbd3940	-0.023098588
102	0xbeae33a5	-0.34023777
103	0xbeafb624	-0.3431865
104	0xbe9e226d	-0.3088564
105	0xbde9acd0	-0.114099145
106	0xbe86b436	-0.26309365
107	0x3e290c59	0.16508617
108	0xbe25ef7e	-0.1620464
109	0x3c998821	0.01874167
110	0x3b808692	0.003922292
111	0xbe8049bc	-0.25056255
112	0x3df5dfb8	0.120055616
113	0xbea3b575	-0.31974378
114	0xbe7f8dc7	-0.24956428
115	0xbe96ca5f	-0.29451272
116	0xbf0b4898	-0.54407644
117	0xbea52ce1	-0.32260802
118	0xbef1473a	-0.47124654
119	0xbd76bb0b	-0.06023697
120	0xbf0851e6	-0.5324997
121	0xbd083be4	-0.03326024
122	0xbf001cc1	-0.50043875
123	0xbef66f9f	-0.48132035
124	0x3dba792a	0.091051415
125	0xbdd4d726	-0.10392599
126	0x3e30926a	0.17243353
127	0xbe3f7ffd	-0.18701167
128	0xbe290a86	-0.1650792
129	0xbf2afbe9	-0.66790634
130	0xbfbff14e	-1.4995515
131	0xbcacaf8f	-0.021079807
132	0xbe626545	-0.22108944
133	0x3e49182e	0.1963813
134	0x3ecd0a1c	0.40046775
135	0xbf15c53e	-0.5850409
136	0xbeea91a3	-0.45814237
137	0xbe94dde7	-0.29075548
138	0xbf4c1def	-0.79733175
139	0x3d15392d	0.03643148
140	0xbe5e00b6	-0.21679959
141	0xbfc6b75e	-1.5524709
142	0xbea24788	-0.316952
143	0x3f54ad9f	0.83077425
144	0xbda422cf	-0.08014452
145	0xbeb38e85	-0.3506967
146	0x3d7f6313	0.062350344
147	0xbe1724ff	-0.14760207
148	0xbe86f137	-0.26355907
149	0xbe819cb3	-0.25314865
150	0xbe5620b1	-0.20910908
151	0xbbc38fb7	-0.00596806
152	0xbe2afdd6	-0.16698393
153	0xbdd8e99d	-0.10591433
154	0xbe2c6a5e	-0.16837451
155	0xbf32ab59	-0.69792706
156	0xbe347140	-0.17621326
157	0xbd1dfb88	-0.038569957
158	0xbf1177fa	-0.56823695
159	0xbd131cac	-0.035916016
160	0xbca69aca	-0.020337481
161	0xbdcbdc0f	-0.09954082
162	0xbe8fd7d2	-0.28094345
163	0x3cc05984	0.023480184
164	0xbcdc4fec	-0.026893578
165	0x3dcf3c13	0.1011888
166	0xbe23051a	-0.15919915
167	0xbc8b60f2	-0.017014
168	0x3e2d86b2	0.16945913
169	0xbb7d8b57	-0.003868779
170	0xbe2fb34b	-0.17158239
171	0xbe2012c7	-0.15632163
172	0x3d84bf86	0.06481843
173	0x3cbb475d	0.022861177
174	0xbdf8ce7b	-0.12148758
175	0x3c4b6c07	0.012415892
176	0xbcd52220	-0.026017249
177	0x3cd380b5	0.025818208
178	0x3e80b7e9	0.25140312
179	0xbedaf98c	-0.42768514
180	0xbe8c7bee	-0.274383
181	0x3d8d18da	0.06889506
182	0xbd7201f9	-0.059083913
183	0xbe6ec852	-0.23318604
184	0xbe8fe111	-0.281014
185	0xbe8bbb5b	-0.27291378
186	0xbec2222a	-0.3791669
187	0xbe4117d7	-0.1885675
188	0x3ce1f938	0.027584657
189	0xbe249605	-0.16072853
190	0xbe45f09f	-0.19330071
191	0xbef2392a	-0.47309238
192	0xbf07c1aa	-0.5302988
193	0xbe4422b4	-0.19153863
194	0x3d49feb9	0.049315188
195	0xbeaa4a62	-0.33259875
196	0xbef91905	-0.486519
197	0x3cc3c95c	0.023899727
198	0xbe2c17e2	-0.16805986
199	0xbed5c000	-0.41748047
200	0xbd7e9a97	-0.062159147
201	0xbed369d5	-0.4129168
202	0xbe9e54f3	-0.30924186
203	0xbec090bd	-0.37610427
204	0x3df07fbb	0.11743113
205	0x3ddcecc6	0.107873484
206	0xbe49e9f0	-0.19718146
207	0xbe01d664	-0.1267944
208	0xbe6597e5	-0.22421224
209	0xbe60d549	-0.21956362
210	0x3e2bac80	0.16765022
211	0x3e4318c2	0.19052413
212	0x3e46488c	0.19363612
213	0x3dc297a0	0.095015764
214	0xbdb6cad4	-0.08925405
215	0x3dbc1f14	0.09185615
216	0xbe81cb04	-0.253502
217	0xbd133511	-0.03593928
218	0xbd753cff	-0.059872624
219	0xbd161560	-0.03664148
220	0xbeb8b1c0	-0.36073112
221	0xbe30a29f	-0.17249535
222	0x3cf7820e	0.030213382
223	0xbea4f3a8	-0.32217145
224	0xbef7f15b	-0.48426327
225	0xbe8e2f41	-0.27770427
226	0xbd523795	-0.05132254
227	0xbe2ea7de	-0.17056224
228	0x3c1fb542	0.009747805
229	0xbdee012a	-0.11621316
230	0xbe2cb9ff	-0.16867827
231	0xbe592ce0	-0.21208525
232	0xbe035dd2	-0.12828758
233	0xbe6a78da	-0.22897664
234	0xbe1f39b6	-0.15549359
235	0xbe7fa350	-0.24964643
236	0xbe81ab97	-0.25326225
237	0x3d80e5f4	0.0629386
238	0xbdebb2f2	-0.115087405
239	0x3d778163	0.060426127
240	0x3ea0adea	0.31382686
241	0x3e7d11a8	0.24713767
242	0x3f29e2b2	0.66361535
243	0x3e1d0f97	0.15337978
244	0x3e4e7dc3	0.20165162
245	0x3e82e231	0.25563195
246	0xbe4dfd6e	-0.20116207
247	0xbec6c0d3	-0.38818988
248	0xbe77c5b4	-0.24196512
249	0x3cdd3245	0.02700151
250	0x3e6ba5a0	0.230124
251	0x3e529dc0	0.2056799
252	0xbe1a9eff	-0.15099715
253	0xbcca9b96	-0.024732392
254	0xbe1cadf8	-0.15300739
255	0xbee5bce9	-0.4487069

conv2.bias f4 [32]
0	0xbcd59986	-0.026074182
1	0xbf45989a	-0.77185977
2	0xbefc8a01	-0.4932404
3	0xbefac6b5	-0.48979726
4	0xbe764c4e	-0.24052545
5	0xbe749ac2	-0.2388716
6	0xbdc6246b	-0.09674915
7	0xbf0782cd	-0.5293396
8	0xbdbb74e3	-0.09153154
9	0xbeacc956	-0.33747357
10	0xbe3141a9	-0.17310204
11	0xbeb131ab	-0.34608206
12	0xbe9e656b	-0.3093675
13	0xbdc94df8	-0.098293245
14	0xbf698208	-0.91214037
15	0xbf8ff072	-1.1245253
16	0xbefafe53	-0.4902216
17	0xbf078e41	-0.5295144
18	0xbf3499a3	-0.7054693
19	0xbf30120c	-0.6877754
20	0xbe9596a3	-0.2921649
21	0xbe13a304	-0.14417654
22	0xbea2b559	-0.31778982
23	0xbb33746a	-0.002738262
24	0xbee9ff1e	-0.4570245
25	0xbe028183	-0.12744717
26	0xbdc135e6	-0.094341084
27	0xbd304eff	-0.043044087
28	0xbe4ab47d	-0.19795413
29	0xbe66c04e	-0.22534296
30	0xbea5f8b1	-0.324163
31	0xbef23bf3	-0.47311363

conv3.weight f4 [32, 32, 3]
0	0xbdaa69aa	-0.08320935
1	0xbd53f681	-0.051748756
2	0xbdba54cc	-0.09098205
3	0xbe11e393	-0.14246969
4	0xbdeace91	-0.11465181
5	0x3d1de52b	0.03854863
6	0xbddf973a	-0.10917516
7	0xbe039810	-0.12850976
8	0xbd1090de	-0.035294406
9	0x3ce66f90	0.028129369
10	0x3de8ded9	0.1137063
11	0x3d9ee1fc	0.07757947
12	0xbb457f35	-0.0030135636
13	0xbe250043	-0.16113381
14	0xbe345599	-0.17610778
15	0x3af33659	0.0018555626
16	0xbd8e2d51	-0.06942237
17	0xbd765891	-0.060143057
18	0x3d19d2f3	0.037554692
19	0xbd1c5c66	-0.038174056
20	0xbdf1ee21	-0.118129976
21	0xbe1b9823	-0.15194754
22	0xbe7656fc	-0.2405662
23	0xbe4ca349	-0.19984163
24	0xbd191b04	-0.03737928
25	0xbd22ce84	-0.03974773
26	0xbd9e8541	-0.0774026
27	0xbdc3343c	-0.09531447
28	0x3aeb9180	0.001797244
29	0x3dbe982c	0.09306368
30	0xba4cbb7c	-0.000780992
31	0xbdf43be6	-0.11925487
32	0xbc591060	-0.013248533
33	0xbd9a16a3	-0.07523849
34	0xbd49ace1	-0.049237136
35	0x3c976a3c	0.018483274
36	0x3d63a46c	0.055576727
37	0x3dad25fa	0.08454509
38	0xbdbfe7c9	-0.093703814
39	0x3c07ea87	0.008295662
40	0xbd936c20	-0.071983576
41	0xbcb299b5	-0.021801809
42	0xbe22755c	-0.15865082
43	0xbd6f50d4	-0.058426693
44	0xbdbd0a1e	-0.09230445
45	0xbdb21936	-0.08696215
46	0xbe6580b2	-0.22412375
47	0xb9f8d03f	-0.00047457402
48	0xbcb6285c	-0.022236042
49	0xbcab25f8	-0.020892128
50	0xbd2e3cfb	-0.042538624
51	0x3d9014b8	0.07035202
52	0x3d4d0d94	0.050061777
53	0x3d05f684	0.0327058
54	0xbd6aed44	-0.05735518
55	0xbda9aca8	-0.08284885
56	0x3c34dd58	0.011039101
57	0x3cf7b770	0.030238837
58	0xbd410455	-0.047123272
59	0xbe5ad8ba	-0.21371737
60	0x3d8d2ae0	0.068929434
61	0x3c0534b0	0.008130237
62	0x3b96e470	0.0046048686
63	0xbdae2f6a	-0.08505137
64	0xbe1c16a4	-0.15243012
65	0xbd1570df	-0.036484595
66	0xbdddea0d	-0.10835657
67	0xbd54807a	-0.051880337
68	0xbce231ee	-0.027611699
69	0xbe5c06d7	-0.21486984
70	0xbdc7290c	-0.09724626
71	0x3d18e9f3	0.037332486
72	0x3d119d74	0.03555055
73	0x3d950358	0.072760284
74	0xbd4a61ab	-0.04940955
75	0xbdd00904	-0.101579696
76	0x3d19a620	0.037511945
77	0xbd8b4454	-0.06800142
78	0xbd88a3a7	-0.06671839
79	0x3d5c742a	0.05382172
80	0xbdc701d6	-0.09717147
81	0xbd9cb224	-0.07651165
82	0xbdff3835	-0.124618925
83	0xbdd31f2b	-0.10308679
84	0xbd317887	-0.043327834
85	0xbe83f4ee	-0.25772804
86	0xbe8f349a	-0.2796982
87	0xbd1844c6	-0.037174962
88	0xbd0a9303	-0.033831608
89	0x3d451f2c	0.04812543
90	0xbc5364b8	-0.012902431
91	0xbd254699	-0.04035053
92	0x3d68f240	0.056871653
93	0xbda67749	-0.081282206
94	0x3b957d8b	0.004562085
95	0xbd222ede	-0.039595477
96	0xbd5d3a15	-0.05401047
97	0xbb42645b	-0.0029661867
98	0xbd579e03	-0.052640926
99	0xbd9b2414	-0.07575241
100	0x3cf162c4	0.02946604
101	0xbd424367	-0.04742756
102	0x3d10ac19	0.035320375
103	0x3d58d119	0.052933786
104	0xbdc20b41	-0.09474803
105	0xbe1d7b85	-0.1537915
106	0x3d7fc604	0.0624447
107	0x3deef0ff	0.1166706
108	0xbe141689	-0.14461721
109	0xbd5b672e	-0.053565197
110	0xbe15d713	-0.14632826
111	0xbe0364fd	-0.12831493
112	0xbccde32e	-0.025132742
113	0xbc93748d	-0.017999912
114	0xbcbb4ea6	-0.022864651
115	0xbdc280b7	-0.09497207
116	0x3cebe6d8	0.028796598
117	0xbcffd579	-0.031229721
118	0xbdd67114	-0.10470787
119	0xbd5075f6	-0.050893746
120	0xbcaaae4b	-0.020835062
121	0xbc1892fe	-0.009312389
122	0xbdf127a5	-0.1177514
123	0x3d1cadec	0.038251802
124	0xbd55927a	-0.052141644
125	0xbdadaf8e	-0.0848075
126	0xbdfa415e	-0.12219499
127	0x3d59b96e	0.053155355
128	0x3d29a128	0.041413456
129	0x3dbb2d4e	0.091395006
130	0x3d7565d8	0.05991158
131	0x3d9de80c	0.07710275
132	0x3d388774	0.045051053
133	0xbde94e3b	-0.113918744
134	0x3bbca7f5	0.0057573267
135	0xbdc7739f	-0.0973885
136	0xbe08fde3	-0.133781
137	0xbd9eb002	-0.077484146
138	0xbd31f26c	-0.043444082
139	0x3c021a38	0.007940821
140	0xbdd7a0a0	-0.10528684
141	0xbdd3414e	-0.1031519
142	0xbcf6bcdb	-0.03011935
143	0xbe016b62	-0.1263862
144	0xbdd7f53f	-0.10544824
145	0x3c45a321	0.012062819
146	0xbdbe7b2c	-0.09300837
147	0x3d517da9	0.05114523
148	0x3cea9470	0.028635234
149	0x3db0c643	0.086315654
150	0xbc09f97f	-0.008421301
151	0xbcabbf25	-0.020965168
152	0xbd876267	-0.06610566
153	0x3c3ec59d	0.011643794
154	0xbd2bf99e	-0.0419861
155	0xbce432d2	-0.027856264
156	0x3cd07eef	0.025451152
157	0xbdba6f62	-0.09103276
158	0xbdef667c	-0.11689469
159	0xbdb984f2	-0.090585604
160	0xbdc0df8b	-0.094176374
161	0xbd40fa5b	-0.047113758
162	0x3c321b1f	0.010870724
163	0x3c68b446	0.014203137
164	0x3b6bc766	0.0035977005
165	0xbdf1494a	-0.11781557
166	0xbdf89338	-0.12137455
167	0xbdb39cad	-0.08770118
168	0xbc9a1cb0	-0.018812507
169	0x3c098890	0.008394375
170	0xbdbfe095	-0.093690075
171	0xbd069114	-0.0328532
172	0xbe151bed	-0.14561434
173	0xbde28711	-0.11060918
174	0xbdfdb553	-0.123881005
175	0x3d3573bf	0.044299837
176	0xbe331783	-0.17489438
177	0x3c53b14e	0.012920691
178	0xbd4294f6	-0.04750534
179	0xbd9fe6e9	-0.078077145
180	0xbacb92ec	-0.0015531457
181	0xbd5d9596	-0.054097734
182	0xbb297956	-0.0025859675
183	0x3b1890d3	0.0023279681
184	0xbe1c5c96	-0.15269694
185	0x3dd68dbd	0.10476253
186	0x3c9dd634	0.01926718
187	0x3cb3c50c	0.021944545
188	0x3c741ff0	0.014900193
189	0xbd2b61ae	-0.0418412
190	0xbdeee8a2	-0.11665465
191	0x3d4e3023	0.050338876
192	0x3ea18021	0.31543067
193	0x3dc667f8	0.09687799
194	0x3bf9e85a	0.0076265754
195	0xbd89e94d	-0.06733952
196	0xbcb94baa	-0.022619087
197	0xbd85e9ef	-0.0653876
198	0x3cdcc9e6	0.026951741
199	0xbdc743a1	-0.09729696
200	0xbda85c50	-0.08220732
201	0x3cc6785a	0.02422731
202	0xbd82ed96	-0.06392972
203	0x3e46ac0e	0.19401571
204	0x3d432706	0.047644638
205	0x3df9d467	0.12198716
206	0x3e0b2a00	0.1359024
207	0x3cda60c9	0.026657479
208	0xbcfff8bf	-0.031246541
209	0xbcaf5d89	-0.021406906
210	0x3c8b060a	0.016970653
211	0x3cc7eb90	0.024404317
212	0x3cc633ff	0.024194716
213	0xbea08b08	-0.31356072
214	0xbaaef5c7	-0.0013348394
215	0xbd78b9b2	-0.060723968
216	0x3db79f3e	0.0896592
217	0x3dd4273a	0.103590444
218	0x3e206527	0.15663587
219	0x3b3ed675	0.0029119526
220	0x3d0f1431	0.034931365
221	0xbe1b6cf4	-0.15178281
222	0x3c79f168	0.01525531
223	0xbd8b26a6	-0.06794481
224	0x3d795859	0.06087527
225	0xbe1fc3ab	-0.15601985
226	0xbd518b6f	-0.051158365
227	0x3ca5f95b	0.020260504
228	0xbdbafeef	-0.09130656
229	0xbc9df18a	-0.019280214
230	0xbdfa3c98	-0.122185886
231	0x3ced806b	0.028991899
232	0x3e3753a1	0.17902996
233	0x3e71466f	0.23562025
234	0xbe67fb44	-0.22654444
235	0x3c0b4c57	0.008502088
236	0x3ddda147	0.10821777
237	0xbe27890a	-0.1636087
238	0xbcd85775	-0.02640889
239	0xbd124d23	-0.035718095
240	0xbd7e5c27	-0.062099602
241	0xbd808652	-0.062756196
242	0x3e14cf5d	0.14532228
243	0xbe8b5ccf	-0.27219245
244	0x3d7850a4	0.06062378
245	0xbc2c6a35	-0.010523369
246	0x3c2dddba	0.010611946
247	0xbd4f3110	-0.0505839
248	0x3da97589	0.08274371
249	0xbdac1c70	-0.084038615
250	0x3e2c3a16	0.16819033
251	0xbe2b5225	-0.16730554
252	0xbe204141	-0.15649892
253	0xbdd3fbe6	-0.1035078
254	0xbd51ff43	-0.051268827
255	0x3cc37571	0.023859711

conv3.bias f4 [32]
0	0xbea8e48f	-0.32986876
1	0xbdad6ab1	-0.084676154
2	0xbe8a8f65	-0.27062526
3	0xbded9227	-0.11600142
4	0xbdc4c87c	-0.09608552
5	0xbe8bc543	-0.27298936
6	0xbeafbbcf	-0.34322974
7	0xbe055da6	-0.13024005
8	0xbe1139af	-0.14182161
9	0x3d8d8018	0.069091976
10	0xbdd099ee	-0.1018561
11	0xbdd04278	-0.10168928
12	0xbe8d4994	-0.27595198
13	0xbe921378	-0.28530478
14	0xbdd5112e	-0.104036674
15	0xbd885428	-0.066566765
16	0xbef16a22	-0.47151285
17	0xbe74e008	-0.23913586
18	0xbe01219a	-0.12610474
19	0xbe94886a	-0.29010326
20	0xbe9c8af6	-0.3057477
21	0xbe4dc71e	-0.20095488
22	0xbe7d0ad7	-0.24711166
23	0xbc1229e4	-0.00892112
24	0x3d2f91c6	0.04286363
25	0xbe0214f9	-0.12703313
26	0xbcfe3061	-0.031028928
27	0xbe97514d	-0.29554215
28	0xbd90386c	-0.070420116
29	0xbe2f5c17	-0.17124973
30	0xbdb1337b	-0.08652397
31	0xbe6fccad	-0.23417921

conv4.weight f4 [32, 32, 3]
0	0x3db798b0	0.0896467
1	0x3c78face	0.015196515
2	0x3adb3d40	0.0016726628
3	0xbe13b2e2	-0.14423707
4	0xbdb355db	-0.0875661
5	0x3d8d626d	0.06903539
6	0xbe67d0e1	-0.22638275
7	0xbdcc27fd	-0.09968565
8	0x3d3cda73	0.046106767
9	0xbe15db62	-0.14634469
10	0xbc71b4fa	-0.014752621
11	0xbd0a07d0	-0.033698857
12	0xbd33c12f	-0.043885406
13	0x3cec806b	0.028869828
14	0x3d78f144	0.060776964
15	0xbda46715	-0.08027474
16	0x3da3bc34	0.07994881
17	0xbc826cdf	-0.015921054
18	0x3d98b200	0.07455826
19	0x3db0ac2a	0.08626588
20	0xbdaa8906	-0.083269164
21	0xbefdbfb2	-0.49560314
22	0xbe219c30	-0.15782237
23	0xbdbd0401	-0.09229279
24	0xbc991155	-0.018685022
25	0x3d6853d0	0.056720555
26	0xbb2640c4	-0.0025368193
27	0xbea3109e	-0.31848615
28	0xbda8418d	-0.08215628
29	0xbc73ceb3	-0.014880824
30	0xbd3b6d7d	-0.045758713
31	0xbe0764db	-0.13222067
32	0xbd6a500b	-0.05720524
33	0xbdc9d353	-0.0985476
34	0xbd2874a2	-0.041126855
35	0x3d923106	0.07138257
36	0xbdd5a580	-0.10431957
37	0x3dfa7152	0.122286454
38	0xbe12bd2c	-0.14329976
39	0x3c0f8144	0.008758847
40	0x3d26eae2	0.040751345
41	0x3d8fc867	0.070206456
42	0xbd0bb295	-0.034105856
43	0xbc566f39	-0.013088041
44	0xbd6b2e7a	-0.05741737
45	0xbe0ca2c3	-0.13733964
46	0xbeb5aef5	-0.35485044
47	0xbe145637	-0.14486013
48	0xbdc38424	-0.09546688
49	0x3d7e1298	0.06202945
50	0xbe212758	-0.15737665
51	0xbd56a118	-0.052399725
52	0xbdd54077	-0.10412686
53	0xbc130d10	-0.008975282
54	0x3d60685c	0.054787025
55	0xbe031d93	-0.1280425
56	0xbd7c01e9	-0.06152526
57	0xbe12d06e	-0.14337322
58	0x3d3d57a0	0.046226144
59	0xbe295171	-0.16534974
60	0x3d937eaf	0.07201897
61	0x3daeabc6	0.08528857
62	0xbcd82623	-0.026385373
63	0x3e01202a	0.12609926
64	0x3cbcfb74	0.023069121
65	0xbdfb1aca	-0.12260969
66	0xbeb54baa	-0.3540929
67	0xbe8d870b	-0.27642092
68	0xbd21e8d4	-0.039528683
69	0x3b24094a	0.002502995
70	0xbe1c4bbe	-0.15263268
71	0xbde07481	-0.10959721
72	0xbec11ceb	-0.37717375
73	0xbe91b66e	-0.28459495
74	0xbdf7ec8c	-0.121056646
75	0xbdc72ca5	-0.09725312
76	0x3e037ddb	0.12840979
77	0xbe067f44	-0.13134485
78	0xbe10e825	-0.14151056
79	0xbe0d84ff	-0.13820265
80	0xbdf69f9b	-0.12042161
81	0x3cc52210	0.024064094
82	0xbe19192d	-0.1495101
83	0xbe82ef6e	-0.25573295
84	0xbeb27ae5	-0.34859386
85	0xbd8acd4c	-0.067774385
86	0xbe2d2d9e	-0.16911933
87	0xbbcdacb8	-0.006276693
88	0x3e040dd7	0.12895904
89	0x3c5e489c	0.013567116
90	0x3d548ac4	0.05189015
91	0x3b194072	0.002338436
92	0xbd76ccf8	-0.060254067
93	0x3e217959	0.15768947
94	0xbe1bc68e	-0.15212461
95	0xbd12f591	-0.03587872
96	0xbc1de1c0	-0.0096363425
97	0x3dc21250	0.09476149
98	0x3d74dfdc	0.0597838
99	0xbcd33aa0	-0.02578479
100	0xbdad705f	-0.08468699
101	0x3c5ba888	0.01340688
102	0xbdfe1a73	-0.124073885
103	0xbd81f263	-0.0634506
104	0xbcde4707	-0.027133478
105	0x3d4c24c8	0.049839765
106	0xbce22098	-0.027603433
107	0xbd8d18fe	-0.068895325
108	0xbdb204c0	-0.08692312
109	0xbdc5fc78	-0.09667295
110	0x3c51bf38	0.012801938
111	0xbd7e707a	-0.062118985
112	0x3b729380	0.0037014186
113	0xbd460d0f	-0.048352297
114	0xbd8d73b8	-0.06906837
115	0x3d8cf15a	0.06881972
116	0x3d6c9470	0.05775875
117	0x3d92c378	0.07166189
118	0x3dc881b8	0.09790367
119	0xbd973c82	-0.07384588
120	0xbddb27f7	-0.10700982
121	0xbd9d5ca8	-0.076836884
122	0x3c81d21a	0.015847255
123	0x3d7650d4	0.060135677
124	0x3da9713e	0.08273552
125	0xbd9241b7	-0.0714144
126	0xbd6031ba	-0.054734923
127	0x3dcbc59a	0.09949799
128	0xbda5fafe	-0.081045136
129	0xbd8b35f2	-0.067973986
130	0x3d19e770	0.03757423
131	0xbdb6b7e6	-0.089217946
132	0xbcec6488	-0.02885653
133	0x3d31a170	0.04336685
134	0x3dab3d2a	0.083612755
135	0xbc3dbe18	-0.011580966
136	0xbdb8f91a	-0.09031887
137	0x3d6ca6d0	0.057776272
138	0x3dd06214	0.10174957
139	0xbd9b2c9a	-0.075768664
140	0xbb93c070	-0.0045090243
141	0xbd9733d5	-0.07382933
142	0xbdd6a200	-0.10480118
143	0x3d0caf00	0.03434658
144	0x3d434e44	0.04768206
145	0x3d2cde04	0.042203918
146	0xbdc4e028	-0.09613067
147	0xbccab0ec	-0.024742566
148	0x3d322b24	0.043498173
149	0xbc1b3700	-0.009473562
150	0xbd013d70	-0.031552732
151	0xbd57f16d	-0.052720476
152	0x3dc630e8	0.09677297
153	0xbda75073	-0.08169641
154	0xbda4a6b8	-0.080396116
155	0x3d985174	0.07437411
156	0xbd7dec52	-0.06199295
157	0x3d7c9e0c	0.061674163
158	0xbd6671d5	-0.056260902
159	0xbc623590	-0.013806716
160	0xbd49fc59	-0.049312923
161	0x3dacb2b8	0.084325254
162	0x3c940306	0.018067848
163	0xbd43b90e	-0.047783904
164	0xbd4dc948	-0.050240785
165	0xbdbac9c1	-0.09120513
166	0xbddba1cc	-0.1072422
167	0xbdbaf79b	-0.09129258
168	0xbc9dd740	-0.019267678
169	0xbd91804a	-0.07104547
170	0x3c87e7a9	0.016589956
171	0x3c70c290	0.014694825
172	0x3a93ac40	0.0011266544
173	0xbd81e49e	-0.063424334
174	0x3d28a520	0.0411731
175	0xbdc15910	-0.094408154
176	0x3cc35880	0.023845911
177	0xbc839d25	-0.016066143
178	0xbd0c27f2	-0.034217782
179	0x3c9ccd2f	0.019140808
180	0xbce6f428	-0.028192595
181	0xbda5a213	-0.08087554
182	0xbdfe2b8b	-0.12410649
183	0xbdc1fecd	-0.094724275
184	0x3d52fb08	0.051508933
185	0x3d638eec	0.055556223
186	0xbd9f7028	-0.07785064
187	0x3cdfd820	0.027324736
188	0xbd19b96a	-0.03753034
189	0x3db00cfa	0.08596225
190	0xbd101800	-0.03517914
191	0x3dad04a6	0.08448152
192	0x3d93d858	0.07218999
193	0xbb5d9faa	-0.003381709
194	0x3d8ed8ee	0.0697497
195	0x3dbc254f	0.091868035
196	0xbcd04304	-0.02542258
197	0xbe13f598	-0.14449155
198	0xbe023a4e	-0.12717554
199	0xbda56c1c	-0.08077261
200	0xbc902a9b	-0.01759844
201	0xbe23ff34	-0.16015321
202	0xbc889361	-0.016671838
203	0xbc4a84fc	-0.0123608075
204	0x3d34409c	0.04400693
205	0x3cca9355	0.024728457
206	0xbd9b9f60	-0.07598758
207	0x3ddf17c5	0.108932056
208	0xbdc29a3d	-0.09502075
209	0x3ce861f6	0.028367024
210	0xbb2ba940	-0.002619341
211	0xbd6a9858	-0.057274193
212	0xbdb806d0	-0.089856744
213	0x3d0cae3b	0.034345847
214	0xbd98662b	-0.07441362
215	0xbdc1d57e	-0.094645485
216	0xbe33154a	-0.1748859
217	0xbe03cdaa	-0.12871423
218	0xbdd66169	-0.10467798
219	0xbe71c06a	-0.23608556
220	0xbd79b679	-0.060965035
221	0xbe80793f	-0.25092503
222	0xbc7dc3b4	-0.015488554
223	0xbc6bfe60	-0.014403909
224	0xbd13cdf3	-0.03608508
225	0xbdb88e9c	-0.090115756
226	0xbda773e7	-0.081764035
227	0x3d749118	0.059708685
228	0xbb00cd78	-0.001965372
229	0xbd254b70	-0.040355146
230	0xbdb2a379	-0.08722586
231	0xbd2b3607	-0.04179957
232	0xbdb57d43	-0.088617824
233	0xbd68eb3e	-0.05686497
234	0xbdc44350	-0.09583151
235	0xbdbfab77	-0.09358876
236	0xbdc1c3cf	-0.09461176
237	0xbd4f58b7	-0.050621714
238	0xbe3a5b96	-0.18199
239	0xbd3aae75	-0.04557653
240	0x3d71cad5	0.059031326
241	0x3befd563	0.007319139
242	0xb8921e0d	-6.96742e-05
243	0x3d37cd3b	0.044873457
244	0xbda18630	-0.07886922
245	0xbbdfb983	-0.0068275346
246	0xbc05aff2	-0.008159624
247	0xbe118f69	-0.14214863
248	0xbe1a66d4	-0.15078288
249	0xbd49c207	-0.049257305
250	0x3e2382eb	0.1596791
251	0xbe15ce3f	-0.14629458
252	0xbd4cd540	-0.05000806
253	0xbccdeea7	-0.025138212
254	0xbdb8a20c	-0.09015283
255	0xbb42fb27	-0.002975175

conv4.bias f4 [32]
0	0xbe8b9994	-0.27265608
1	0xbdc28c6f	-0.09499442
2	0xbd9689f7	-0.073505335
3	0xbd944ccf	-0.072412126
4	0xbe1d1cea	-0.15343061
5	0xbdb18350	-0.08667624
6	0xbd7ed0d9	-0.06221089
7	0xbe79125c	-0.2432341
8	0xbe3f5e7d	-0.18688388
9	0xbdf8591a	-0.1212637
10	0xbd88de2b	-0.06683
11	0xbd7a15cb	-0.06105594
12	0xbd4c4745	-0.049872655
13	0xbe2fd4b8	-0.1717099
14	0xbe389397	-0.18025051
15	0xbdade079	-0.084900804
16	0xbe33d658	-0.17562234
17	0xbd8f4277	-0.06995099
18	0xbd03bc2f	-0.032161888
19	0xbe440ec9	-0.19146265
20	0xbd029994	-0.031884745
21	0x3e29131c	0.16511196
22	0xbe562e4b	-0.20916097
23	0xbccae165	-0.02476568
24	0xbe02f2a1	-0.12787868
25	0xbd677a5c	-0.056513175
26	0xbde821ca	-0.1133457
27	0x3e459e6a	0.19298711
28	0xbd73e19c	-0.05954133
29	0xbe39685f	-0.1810622
30	0xbe7aef29	-0.24505295
31	0xbe35ef9d	-0.17767186

fc1.weight f4 [128, 256]
0	0xbd644748	-0.05573204
1	0xbce5f820	-0.028072417
2	0x3d134caa	0.035961784
3	0x3d48729e	0.048937432
4	0xbd572cb0	-0.05253285
5	0xbd21ac1c	-0.039470777
6	0x3c632b58	0.013865314
7	0xbc3aa270	-0.011391267
8	0xbd51cb16	-0.05121907
9	0x3c8e3ba0	0.017362416
10	0xbd551674	-0.052023366
11	0x3b802cd0	0.003911592
12	0x3cd0b670	0.025477618
13	0x3d6c22a4	0.057650223
14	0xbd5a7adc	-0.053339824
15	0x3d3f2782	0.046668537
16	0x3c0e7d40	0.008696854
17	0x3d5ee358	0.05441603
18	0x3d7bfe1c	0.061521634
19	0xbc7f63f0	-0.015587792
20	0xbc1f7bb0	-0.009734079
21	0xbc778a60	-0.015108675
22	0x3d49575a	0.04915557
23	0xbcddb78c	-0.027065061
24	0x3d291070	0.04127544
25	0x3cd2939c	0.025705151
26	0x3d70b522	0.05876649
27	0x3d355364	0.04426898
28	0x3d4fc2fe	0.05072307
29	0xbd526ba2	-0.051372178
30	0xbd06be7e	-0.03289651
31	0xbd35a242	-0.044344194
32	0x3cfe3a1c	0.031033568
33	0x3c5050a8	0.012714542
34	0x3cc32814	0.023822822
35	0x3cc02b2c	0.023458086
36	0x3b2d5dc0	0.0026453584
37	0x3cc362e0	0.023850858
38	0xbd0ad132	-0.03389091
39	0x3d265246	0.040605806
40	0xbd5c6564	-0.05380763
41	0xbd6b3a4a	-0.057428636
42	0x3cade1cc	0.021225832
43	0x3d705670	0.058676183
44	0xbcbb4f40	-0.022864938
45	0x3d712558	0.058873504
46	0xbcb5bebc	-0.022185676
47	0xbd42897e	-0.047494404
48	0xbc1f35a0	-0.009717375
49	0x3d0d9458	0.0345653
50	0xbd054016	-0.03253182
51	0x3d70129c	0.058611497
52	0xbce4f7b4	-0.027950145
53	0xbce2a104	-0.027664669
54	0xbcd53c90	-0.026029855
55	0xbd42fb0c	-0.0476027
56	0x3d6ecdd2	0.058301754
57	0xbd10a248	-0.035311013
58	0xbce65af8	-0.02811955
59	0xbc9b22b8	-0.018937454
60	0x3d578004	0.05261232
61	0x3ceedad4	0.02915708
62	0x3cbc8334	0.023011781
63	0xbc86a304	-0.016435154
64	0x3d01604e	0.031585984
65	0x3c39c1d0	0.011337712
66	0x3d4bf76c	0.049796507
67	0x3c6351e8	0.013874508
68	0x3d3be506	0.04587271
69	0x3d30abf4	0.043132737
70	0x3c32f1d8	0.010921918
71	0xbd75511a	-0.059891798
72	0x3c505a50	0.012716845
73	0xbd41270e	-0.047156386
74	0x3c2feef0	0.0107381195
75	0xbbe55960	-0.0069991797
76	0x3d4bb0be	0.0497291
77	0xbd37c14c	-0.044862077
78	0xbd5604c6	-0.052250646
79	0x3ce433a8	0.027856663
80	0x3d290702	0.04126645
81	0xbc5ede18	-0.013602756
82	0x3c8a93fc	0.016916268
83	0x3d4d7460	0.050159812
84	0x3bcbb880	0.0062170625
85	0xbc8f1a94	-0.017468728
86	0x3d14053c	0.036137804
87	0x3d66b8f6	0.056328736
88	0xbc2dd0f8	-0.010608904
89	0x3d2db278	0.04240653
90	0x3baadf70	0.005214624
91	0xbc566990	-0.0130866915
92	0xbbb2bd10	-0.005454667
93	0xbd7884d0	-0.060673535
94	0x3cf59e8c	0.029982828
95	0xbd0b56f2	-0.034018464
96	0xbd5a0670	-0.053228796
97	0xbc0df838	-0.008665137
98	0xbcd09b1c	-0.025464587
99	0xbd22f138	-0.039780825
100	0xbc579488	-0.013157971
101	0xbbd82540	-0.0065962374
102	0x3c9b9cf4	0.01899574
103	0x3c0c5930	0.008566186
104	0xbc08d108	-0.008350618
105	0x3c6169c8	0.01375813
106	0xbd25a41a	-0.040439703
107	0x3d589da0	0.052884698
108	0x3cfab588	0.030604139
109	0x3d21f3c8	0.03953913
110	0xbd64565c	-0.05574642
111	0x3d2ebd7e	0.042661183
112	0x3c350158	0.011047684
113	0xbd7763c8	-0.060397893
114	0x3d731474	0.059345677
115	0xbaab6e80	-0.0013079196
116	0x3c4462d8	0.011986457
117	0x3d53ca10	0.051706374
118	0x3d2516fc	0.040305123
119	0x3d63c1b6	0.05560466
120	0xbd6ef0f6	-0.058335267
121	0x3d7d1738	0.06178972
122	0x3c796dc8	0.015223928
123	0x3a54c800	0.00081169605
124	0xbd4924e2	-0.04910744
125	0xbd09aa54	-0.033609703
126	0x3d7887bc	0.06067632
127	0x3d3e5704	0.046469703
128	0x3d478e28	0.048719555
129	0xbbac1c10	-0.0052523687
130	0xbd0e994e	-0.03481417
131	0x3c6f1918	0.014593385
132	0xbcf3f85c	-0.029781513
133	0xbd26a438	-0.040683955
134	0x3ca55bd0	0.020185381
135	0x3d48cbaa	0.049022354
136	0xbd446386	-0.047946475
137	0xbd6248ae	-0.055245094
138	0x3c0a5a58	0.008444391
139	0xbcb4655c	-0.022020988
140	0xbd08e488	-0.03342107
141	0xbc5197a0	-0.012792498
142	0xbb6cdec0	-0.0036143512
143	0xbc8dff2c	-0.01733359
144	0x3d3d941e	0.046283834
145	0x3d0ddc0e	0.03463369
146	0x3ca1099c	0.019657902
147	0xbca42f18	-0.020041987
148	0xbbb68c80	-0.005570948
149	0x3d25f84e	0.040520005
150	0x3ba9cec0	0.005182117
151	0xbd76f88c	-0.060295627
152	0x3bc29810	0.0059385374
153	0x3d060cba	0.03272698
154	0xbc83548c	-0.016031526
155	0xbc3f29a8	-0.0116676465
156	0xbc0aebb8	-0.008479051
157	0x3d1d5256	0.0384086
158	0x3d536314	0.05160816
159	0xbd48e664	-0.049047843
160	0x3d28aa9e	0.04117834
161	0x3cd1a940	0.0255934
162	0x3cb33b64	0.021878906
163	0xbd116bfe	-0.03550338
164	0xbd12269e	-0.03568136
165	0x3d7e3316	0.062060438
166	0x3c8305c8	0.015993968
167	0xbc63e538	-0.0139096305
168	0xbdd6a041	-0.10479785
169	0xbb63e8a5	-0.0034776118
170	0xbd6d5859	-0.057945583
171	0xbd92f08d	-0.07174788
172	0xbde7ae76	-0.11312573
173	0xbd836e69	-0.064175434
174	0xbc6dc512	-0.014512317
175	0xbdb0afbe	-0.0862727
176	0x3aca7e00	0.0015448928
177	0x3c4c8770	0.012483463
178	0xbd7a5e7c	-0.061125264
179	0xbc49aad8	-0.012308799
180	0x3bc2fc20	0.005950466
181	0x3d52d9ba	0.05147717
182	0x3c62c1e0	0.013840169
183	0xbd599700	-0.05312252
184	0xbc96108c	-0.018318437
185	0x3d7d7558	0.061879486
186	0xbc054108	-0.00813318
187	0x3d412136	0.047150813
188	0x3beaf940	0.007170826
189	0x3d27faf2	0.041010804
190	0xbcdc064c	-0.026858471
191	0x3d7b7e18	0.06139955
192	0x3c581cd0	0.013190463
193	0xbc51a4e8	-0.012795664
194	0x3d44d70c	0.048056647
195	0x3cfc7c54	0.030821003
196	0xbd2c136e	-0.042010717
197	0xbb9341a0	-0.004493907
198	0x3d377b68	0.044795424
199	0x3c7f1e70	0.015571222
200	0xbca1ecc8	-0.019766226
201	0xbd26acfa	-0.040692307
202	0xbd334442	-0.043766268
203	0x3d0e4e2c	0.03474252
204	0x3ce7add8	0.028281137
205	0xbd62d976	-0.05538317
206	0xbc524148	-0.012832947
207	0x3c81954c	0.01581826
208	0xbd62800e	-0.055297904
209	0x3d5c9ec8	0.053862363
210	0xbbda6ad0	-0.006665565
211	0xbccffcd4	-0.025389113
212	0x3be40a00	0.0069592
213	0x3cb8f86c	0.022579394
214	0x3c638c38	0.013888411
215	0x3d72c600	0.05927086
216	0xbd958b4b	-0.07301959
217	0xbdbc22b5	-0.09186307
218	0xbe144a51	-0.14481474
219	0xbdc52ef8	-0.09628099
220	0xbe29c50a	-0.1657907
221	0xbe3b4d43	-0.18291192
222	0xbdd86825	-0.10566739
223	0xbe27da39	-0.16391839
224	0xbd71d364	-0.05903949
225	0x3cb69810	0.022289306
226	0xbcd6d314	-0.026223697
227	0x3d7518ee	0.059838228
228	0x3cb71cb4	0.022352554
229	0x3cda0ac4	0.026616462
230	0x3c953abc	0.018216483
231	0x3cc7ae14	0.024375
232	0x3d23e9b0	0.040017784
233	0x3d3c106e	0.045914106
234	0x3d6ef8f4	0.05834289
235	0xbc912518	-0.017717883
236	0x3c8ab7dc	0.016933374
237	0xbce70464	-0.028200336
238	0xbb502040	-0.0031757504
239	0x3c957e70	0.018248767
240	0x3ce4c718	0.027926967
241	0xbd779f32	-0.060454555
242	0x3cc64130	0.024201006
243	0xbcc63c6c	-0.024198733
244	0xbd3450de	-0.044022433
245	0xbcda0bfc	-0.026617043
246	0xbab0be40	-0.0013484433
247	0x3cfc2528	0.030779436
248	0xbd640040	-0.0556643
249	0x3c8b12d4	0.016976751
250	0x3d66a6f8	0.056311578
251	0xbd10a202	-0.035310753
252	0x3c74b128	0.0149348155
253	0xbccdd544	-0.025126107
254	0x3c7bc0d0	0.015365794
255	0x3cddb44c	0.027063511

fc1.bias f4 [128]
0	0xbdf0b29f	-0.11752819
1	0xbd3524f5	-0.044224698
2	0xbe099f85	-0.13439758
3	0x3e8a945d	0.27066317
4	0xbc64fc3b	-0.013976152
5	0xbd9cdcc8	-0.07659298
6	0xbdc22b34	-0.094808966
7	0x3e171caa	0.14757028
8	0xbf19c0ce	-0.6005982
9	0x3ead4e76	0.33848923
10	0x3dfae42e	0.12250553
11	0xbd810112	-0.06299032
12	0xbe074504	-0.13209921
13	0xbdc11042	-0.09426929
14	0xbedd408a	-0.43213302
15	0x3e60f082	0.21966746
16	0x3e6da01a	0.23205605
17	0x3f3e1a0e	0.74258506
18	0xbd86b1da	-0.06576891
19	0xbdcc7f30	-0.099851966
20	0xbdf83b9a	-0.12120743
21	0xbde46893	-0.111527584
22	0xbddbc08a	-0.10730083
23	0x3ed98a1a	0.42488176
24	0xbe1d7eca	-0.15380397
25	0xbd1cae48	-0.038252145
26	0xbdb624d2	-0.08893742
27	0xbd917187	-0.07101732
28	0x3f065bf9	0.5248409
29	0xbe08f272	-0.13373736
30	0xbe955f3d	-0.29174224
31	0x3f2c5a06	0.67324865
32	0xbe03e0e6	-0.1287876
33	0xbdc9d97e	-0.098559365
34	0xbd23a0a6	-0.03994813
35	0x3dc95164	0.09829977
36	0xbe9c7b1b	-0.30562672
37	0x3f52a07c	0.8227613
38	0xbf230694	-0.6368191
39	0xbce53f39	-0.027984248
40	0xbe1491c4	-0.1450873
41	0xbe8ef002	-0.27917486
42	0xbdddc382	-0.10828306
43	0xbdb87056	-0.090058014
44	0xbde8f04c	-0.11373958
45	0xbdc5d5b2	-0.096599
46	0xbd68ae14	-0.05680664
47	0xbd3d3888	-0.04619649
48	0x3ea4ff91	0.32226232
49	0xbbabf6d0	-0.005247928
50	0x3ea6ade1	0.32554534
51	0xbdddca16	-0.108295605
52	0xbe1fa559	-0.15590419
53	0x3ea498f8	0.32147956
54	0xbe0648f4	-0.13113767
55	0xbe9f9e44	-0.31175435
56	0xbdfc04da	-0.12305613
57	0xbdfe07f3	-0.1240386
58	0x3e0cd46d	0.13752909
59	0x3e3f8c85	0.18705948
60	0x3ee2c74c	0.44292676
61	0xbde61ffc	-0.11236569
62	0xbda90b4f	-0.0825411
63	0xbe208d1b	-0.15678827
64	0xbdd8e211	-0.10589994
65	0xbdd76346	-0.10516982
66	0xbd50b5ae	-0.050954513
67	0xbccdc294	-0.025117196
68	0x3e057eab	0.13036601
69	0xbd45dcfc	-0.04830645
70	0xbe33043a	-0.17482081
71	0x3f2c5d35	0.6732972
72	0xbd6eed26	-0.05833163
73	0xbdcf40a6	-0.101197526
74	0xbdcb31f8	-0.0992164
75	0xbdc5a31f	-0.096502535
76	0xbdcbfa4d	-0.099598505
77	0xbd85d60a	-0.06534965
78	0xbe115819	-0.14193763
79	0xbdf8a0d6	-0.12140052
80	0xbe0a07f1	-0.13479592
81	0xbd98b36f	-0.07456099
82	0xbedcf110	-0.43152666
83	0x3d02a711	0.03189761
84	0xbd694735	-0.056952674
85	0xbe127436	-0.14302143
86	0x3f6bd9c1	0.9212914
87	0xbd9cf92c	-0.07664713
88	0x3e259767	0.16171037
89	0xbd88de70	-0.066830516
90	0xbe1e4b88	-0.154585
91	0xbdb09c49	-0.08623559
92	0xbdfbc3b0	-0.12293184
93	0xbddba2ee	-0.10724436
94	0xbdfe9497	-0.12430685
95	0xbee3c305	-0.44484726
96	0xbe4e1a9d	-0.2012734
97	0x3e54afc6	0.20770177
98	0xbcde2a28	-0.027119711
99	0x3edf19a8	0.43574262
100	0xbe00d21a	-0.12580147
101	0xbd1ea56b	-0.038731974
102	0xbdadda71	-0.0848893
103	0x3f218953	0.63100165
104	0x3eacdd96	0.33762807
105	0xbe16d0e2	-0.1472812
106	0xbe07c3b9	-0.13258256
107	0x3dd8c253	0.105839394
108	0xbe06fd41	-0.13182546
109	0xbd802fef	-0.062591426
110	0xbec21b01	-0.37911227
111	0xbe5dd6a7	-0.21663915
112	0xbe0acbf1	-0.1355436
113	0xbdbe6399	-0.092963405
114	0xbd94726c	-0.07248387
115	0xbe169671	-0.14705826
116	0xbde8818e	-0.113528356
117	0xbe0c525a	-0.1370329
118	0x3d80ae98	0.06283301
119	0xbd0d367c	-0.03447579
120	0xbd5f3429	-0.054493103
121	0xbe2f77f0	-0.17135596
122	0xbe313aff	-0.17307661
123	0x3e61b797	0.2204269
124	0x3d614844	0.05500056
125	0xbe0f432d	-0.1399047
126	0xbe0d7cfd	-0.1381721
127	0xbd99ccc7	-0.07509761

fc21.weight f4 [8, 128]
0	0xb9cdcff1	-0.00039255575
1	0x3d40d413	0.04707725
2	0xbcd5ec69	-0.026113706
3	0xbed6e9f1	-0.41975358
4	0x3e081dd2	0.13292626
5	0x3cb90138	0.022583589
6	0x3d37541f	0.04475796
7	0x3ee3aa0b	0.4446567
8	0xbebf417c	-0.37354648
9	0xbe5d6794	-0.21621543
10	0xbe5794ec	-0.21052903
11	0xbd9a2b26	-0.07527761
12	0x3d8e02b4	0.06934109
13	0x3d41c57b	0.047307473
14	0xbe9858fd	-0.29755393
15	0x3d612685	0.054968376
16	0x3ea147f5	0.3150021
17	0x3f2120fd	0.6294096
18	0x3db2e51c	0.087351054
19	0xbcc1ce70	-0.023658007
20	0x3d9f903f	0.07791185
21	0xba637891	-0.00086773286
22	0xbf31fc46	-0.69525564
23	0x3e230d60	0.15923071
24	0x3c90bdba	0.017668594
25	0x3cc067ba	0.02348696
26	0xbca74434	-0.020418264
27	0xbd38e398	-0.045138925
28	0x3f0953d3	0.5364353
29	0x3d990a21	0.07472635
30	0xbfd151c7	-1.6353081
31	0x3ed34b14	0.41268218
32	0xbdc513ee	-0.09622942
33	0x3d0ea28c	0.034822986
34	0xbb919955	-0.0044433274
35	0x39449690	0.00018748106
36	0xbde1b83a	-0.110214666
37	0x3f92f0d9	1.1479751
38	0xbf89d39d	-1.0767704
39	0xbdb02670	-0.08601081
40	0x3dfd65d9	0.123729415
41	0x3e1eac9d	0.15495534
42	0x3f30bc4f	0.69037336
43	0x3db30bf2	0.08742513
44	0xbc0c5002	-0.008563997
45	0xbdc82ea4	-0.09774521
46	0x3e4a4a15	0.19754823
47	0xbd199b1d	-0.037501443
48	0xbeb328de	-0.34992117
49	0x3d0bda32	0.034143634
50	0xbcbc0dd4	-0.022955813
51	0x3c1ae8b9	0.0094548995
52	0x3d5166d3	0.05112345
53	0x3eb038e2	0.34418398
54	0xbeabe3d0	-0.33572245
55	0x3e157b44	0.14597803
56	0xb9e8dd17	-0.00044415213
57	0x3d7c4800	0.061592102
58	0x3f040194	0.5156491
59	0xbe3b12ad	-0.18268843
60	0x3f11f6ae	0.5701703
61	0xbdac015e	-0.08398698
62	0x3e1ee532	0.15517119
63	0x3d6b7e41	0.057493452
64	0x3d53eee7	0.051741507
65	0x3d8459b2	0.064624205
66	0x3d139c9f	0.036038037
67	0xbdb3d35b	-0.08780547
68	0xbe964a21	-0.2935343
69	0xbd8483f6	-0.06470482
70	0xbc72600b	-0.014793406
71	0x3f82b678	1.0211935
72	0xbc37667f	-0.011193871
73	0x3db90d4c	0.09035739
74	0xbd9f44cb	-0.07776793
75	0x3de118af	0.10991036
76	0x3d70618b	0.058686774
77	0xbcc5c267	-0.02414055
78	0x3dd37f04	0.10326961
79	0x3e5dbdf4	0.21654493
80	0xbd8a9689	-0.067669936
81	0xbd0ce9a2	-0.034402497
82	0xbeeb9212	-0.4600988
83	0xbc66be98	-0.014083527
84	0x3df34c27	0.11879759
85	0xbe805cfd	-0.25070944
86	0x3e5ac7bf	0.2136526
87	0x3cf7df85	0.03025795
88	0x3eac20a0	0.3361864
89	0xbc9100f1	-0.017700644
90	0x3dde778c	0.108626455
91	0xbd78c87f	-0.060738083
92	0x3da34409	0.07971961
93	0xbf0b2f37	-0.5436892
94	0xbd76b33c	-0.060229525
95	0xbe838f5b	-0.2569531
96	0x3ca327e3	0.01991648
97	0x3e8b842a	0.2724927
98	0xbd98d79d	-0.07463
99	0xbec634c7	-0.3871214
100	0x3dae0063	0.084961675
101	0xbde436eb	-0.11143287
102	0x3dc0aea4	0.0940831
103	0x3d9ec898	0.07753104
104	0x3ea9c9be	0.3316173
105	0x3c727c5f	0.01480016
106	0x3dedcb09	0.116109915
107	0x3c984d45	0.018591532
108	0x3d6a0255	0.05713113
109	0x3b703b71	0.0036656524
110	0xbe61de41	-0.2205744
111	0x3de0545e	0.10953592
112	0x3cdeed95	0.027212897
113	0xbd9de89f	-0.077103846
114	0x3f254efc	0.64573646
115	0xbdc8fdc7	-0.09814029
116	0xbd6f45a5	-0.058416028
117	0x3d04c05b	0.032410007
118	0xbe18d61b	-0.14925425
119	0xbe265678	-0.16243923
120	0x3cc12b4f	0.023580221
121	0x3c424df2	0.011859404
122	0xbce8dc4c	-0.028425358
123	0x3ea3e43b	0.32010064
124	0x3d78f675	0.060781915
125	0x3ca8b2ee	0.020593133
126	0x3db40498	0.08789939
127	0xbd0f3279	-0.034960244
128	0x3c4be086	0.012443667
129	0x3d15f80e	0.036613517
130	0xbdb12c7b	-0.08651062
131	0xbf05b873	-0.5223457
132	0x3d3b89ff	0.0457859
133	0xbd59b8c7	-0.053154733
134	0xbce254ac	-0.027628265
135	0xbeb5cf30	-0.35509634
136	0x3e9c469c	0.3052262
137	0xbe894beb	-0.26815733
138	0x3e29a456	0.16566595
139	0xbdb3a3fd	-0.08771513
140	0xbda9384c	-0.08262691
141	0x3d64b793	0.055839133
142	0xbe6f1d64	-0.23351055
143	0xbef31f8f	-0.47485015
144	0xbed909da	-0.4239033
145	0x3e23cfa7	0.15997182
146	0x3e08e8db	0.13370077
147	0xbd97d989	-0.074145384
148	0xbd7b2dfc	-0.06132315
149	0x3e18a2fb	0.14905922
150	0xbf872cd9	-1.0560561
151	0x3d0a51aa	0.033769287
152	0x3c85c613	0.0163298
153	0xb9a39339	-0.00031199472
154	0xbced926c	-0.029000483
155	0xbbe3e780	-0.006955087
156	0x3e003271	0.12519242
157	0xbde03a37	-0.109486036
158	0x3f10fd96	0.5663694
159	0x3eb0b29e	0.34511274
160	0xbb08146c	-0.0020764126
161	0x3d8c10a4	0.068391114
162	0x3d5c074a	0.05371789
163	0xbea17eaa	-0.3154195
164	0x3e1dc55c	0.15407318
165	0x3ef5ffe4	0.48046792
166	0xbebb2708	-0.36553216
167	0xbd804f43	-0.06265118
168	0x3f3246e8	0.69639444
169	0xbe7fa4ab	-0.2496516
170	0x3e0909c9	0.13382639
171	0x3dc70942	0.09718563
172	0xbdbdfc22	-0.09276606
173	0xbb22fe5d	-0.002487085
174	0xbec4be0e	-0.3842625
175	0xbb4923a7	-0.0030691416
176	0x3e9c8005	0.3056642
177	0xbf3efe2d	-0.7460659
178	0x3dadd302	0.08487512
179	0xbd0b0bea	-0.03394691
180	0xbccc525d	-0.024941618
181	0xbd5e4060	-0.05426061
182	0x3c3254ce	0.010884477
183	0x3c793919	0.015211367
184	0xbd9fcfdf	-0.0780332
185	0xbcac9f18	-0.021071956
186	0xbf0dd2bb	-0.55399674
187	0x3f41045a	0.75397265
188	0x3e4659e3	0.19370227
189	0xbd62a3be	-0.055331938
190	0xbbe5b26d	-0.0070097954
191	0x3d8f2824	0.06990078
192	0xbd23b3a0	-0.039966226
193	0xbd182501	-0.037144665
194	0x3cef4992	0.029209886
195	0x3c1c1d96	0.009528538
196	0xbf12a3ed	-0.5728138
197	0xbcf0ee3a	-0.02941047
198	0x3ca95f14	0.02067522
199	0xbf329251	-0.6975451
200	0x3d8884f7	0.06665986
201	0xbcec5ec3	-0.02885378
202	0xbcb33dd1	-0.021880062
203	0xbd7a38fa	-0.061089493
204	0x3cc62efd	0.024192328
205	0xbd832048	-0.064026415
206	0xba2b8442	-0.000654284
207	0x3e79cc9b	0.24394457
208	0x3d2033fe	0.039112084
209	0xbdf2fa19	-0.118641086
210	0x3d77c87d	0.060493935
211	0xbf5f6526	-0.87263715
212	0x3d23316a	0.039842047
213	0xbe8cba4d	-0.27485886
214	0xbf24bbbf	-0.6434898
215	0x3c391344	0.011296097
216	0x3ede0ea2	0.4337054
217	0xbb238b1a	-0.0024954737
218	0x3d3bdb9f	0.045863744
219	0x3d9d67bb	0.07685801
220	0xbc944caa	-0.018102963
221	0x3dbed5db	0.093181334
222	0xbcba6b8a	-0.022756357
223	0xbea869ba	-0.32893163
224	0x3d0189af	0.031625446
225	0xbf4b785e	-0.7948054
226	0xbba19250	-0.004930772
227	0x3ea6faf8	0.3261335
228	0xbc9eefda	-0.01940148
229	0xbd1aed50	-0.037823975
230	0x3b227dbf	0.0024794189
231	0x3e36f304	0.1786614
232	0x3f2cf74d	0.6756485
233	0x3d1650fb	0.036698323
234	0x3d10f07d	0.035385597
235	0x3e0995b1	0.13436009
236	0xbd3a5db4	-0.04549952
237	0xbd3f6792	-0.04672963
238	0x3ec14b74	0.3775288
239	0xbe45d847	-0.19320785
240	0xbde99c04	-0.11406711
241	0x3dc7d38e	0.09757148
242	0x3e72691e	0.23672912
243	0x3dd3783d	0.10325668
244	0x3d41e38e	0.047336154
245	0xbc0e66dd	-0.008691517
246	0x3f157666	0.58383787
247	0x3ec52455	0.38504282
248	0x3d3b3698	0.04570636
249	0xbd937df1	-0.07201756
250	0x3d8e13e1	0.06937385
251	0x3c8c402f	0.017120449
252	0x3ef7e916	0.48420018
253	0xbd9c1ee3	-0.07623079
254	0x3cf9b5ce	0.030482199
255	0x3d1a9243	0.037737142

fc21.bias f4 [8]
0	0x3f08b0fc	0.53395057
1	0x3e4e8c09	0.20170607
2	0x3d206f4a	0.039168634
3	0xbe1d48a6	-0.15359744
4	0x3e4a141a	0.1973423
5	0xbe41e828	-0.18936217
6	0xbeb9708e	-0.36218685
7	0xbdb56b33	-0.08858337

fc22.weight f4 [8, 128]
0	0xbd728b19	-0.059214685
1	0xbd2c3062	-0.04203833
2	0xbda32aa2	-0.07967116
3	0xbc81a6e8	-0.015826657
4	0xbd6a8ac1	-0.057261232
5	0x3cd45df2	0.025923703
6	0x3dd1da77	0.10246747
7	0x3e30a9e4	0.17252308
8	0xbc94095d	-0.018070871
9	0x3e87aaed	0.26497594
10	0xbd63718c	-0.05552821
11	0xbdd0d66d	-0.101971485
12	0xbc3e5371	-0.011616574
13	0xbde4adfc	-0.111659974
14	0xbdc71648	-0.09721047
15	0xbe571182	-0.21002772
16	0x3d1549ae	0.03644722
17	0x3bb17236	0.0054152263
18	0x3b5da12f	0.0033817997
19	0xbd65fda3	-0.05615009
20	0x3bb8e727	0.00564279
21	0xbc1e9d4c	-0.009681057
22	0xbd79bfba	-0.06097386
23	0xbe92e85f	-0.2869291
24	0xbe245207	-0.16046916
25	0x3b1c2cc2	0.0023830389
26	0xbc22a5d2	-0.00992723
27	0x3e48e571	0.19618775
28	0x3d8a5b68	0.067557156
29	0x3ba60968	0.0050670393
30	0xbd7b581b	-0.06136332
31	0xbe0458d4	-0.1292451
32	0x3e1240c9	0.14282526
33	0x3e0191dc	0.12653297
34	0xbda262ee	-0.079290256
35	0x3d6ea9c6	0.058267377
36	0x3f02058a	0.507897
37	0x3e7a4ca6	0.24443302
38	0xbdab6287	-0.08368402
39	0x3df72ab7	0.12068694
40	0x3b4e9144	0.003151969
41	0x3dab6220	0.08368325
42	0xbeda5086	-0.4263956
43	0x3cf0d648	0.029399052
44	0xbcdfab34	-0.027303316
45	0x3d999ec3	0.075009845
46	0x3e450646	0.19240674
47	0x3d9119a7	0.07084971
48	0xbd581aea	-0.052760042
49	0xbdf33c66	-0.118767545
50	0xbe17d77a	-0.14828292
51	0x3c217066	0.009853458
52	0xbbf1dfbc	-0.0073814075
53	0xbeabe889	-0.33575848
54	0xbcc029cb	-0.023457428
55	0x3d7e7b15	0.0621291
56	0x3e0b0d74	0.1357935
57	0xbd1c7060	-0.038193107
58	0xbe85cda1	-0.26133445
59	0xbec8afda	-0.39196664
60	0xbecf63df	-0.40505883
61	0x3d99ddac	0.07512984
62	0x3d2e0994	0.042489603
63	0x3e1148aa	0.14187875
64	0xbd3115ec	-0.043233797
65	0x3e0f1412	0.139725
66	0x3cb269f1	0.021779032
67	0x3d92d7fc	0.07170102
68	0xbd2a61ee	-0.0415973
69	0xbd3c4641	-0.045965437
70	0xbdc49afa	-0.09599872
71	0x3e5af73b	0.21383373
72	0xbd97da0e	-0.074146375
73	0xbca850b3	-0.020546293
74	0xbde8fb70	-0.11376083
75	0xbac4cc2b	-0.001501446
76	0x3df9702a	0.12179597
77	0x3d5cd725	0.053916115
78	0xbda27f57	-0.079344444
79	0x3dfce6e3	0.12348726
80	0x3df4de9c	0.11956522
81	0x3e17cdf0	0.14824653
82	0x3dd04c93	0.101708554
83	0x3d01c3eb	0.031680983
84	0xbbf1bd3d	-0.0073772953
85	0xbd5d8eb9	-0.05409119
86	0xbec6b373	-0.38808784
87	0x3c82a153	0.015946066
88	0xbe636f9d	-0.22210546
89	0xbde24768	-0.11048776
90	0xbd5b1689	-0.053488288
91	0xbc28d0a1	-0.010303647
92	0xbe0784d8	-0.1323427
93	0x3d978583	0.07398512
94	0x3d83dd59	0.06438703
95	0xbc9ddbe1	-0.019269885
96	0xbd11aab4	-0.035563186
97	0x3e2f53da	0.1712183
98	0xbcbe279c	-0.023212247
99	0xbe05fbbc	-0.1308431
100	0xbd14c079	-0.03631637
101	0x3d8d3c8e	0.068963155
102	0x3c3364b8	0.010949306
103	0xbecaa175	-0.39576307
104	0x3e0e5fe0	0.13903761
105	0xbd869cba	-0.06572862
106	0xbe0c66e1	-0.1371112
107	0xbdbadc9b	-0.091241084
108	0x3e1d0a72	0.15336016
109	0xba87badf	-0.0010355375
110	0xbe9712f3	-0.29506645
111	0xbdb5f2d9	-0.0888421
112	0x3d048ebe	0.032362692
113	0xbdf61e8f	-0.12017547
114	0xbecc0409	-0.3984683
115	0x3c4e4c44	0.012591425
116	0x3dbadc4d	0.0912405
117	0xbe2d7c4d	-0.16941948
118	0x3e1755bc	0.14778799
119	0xb91b3787	-0.00014802637
120	0xbd1b67bf	-0.037940737
121	0x3d1d7eee	0.038451128
122	0xbd1e3e20	-0.038633466
123	0xbdcc49a7	-0.099749856
124	0x3e447206	0.19184121
125	0xbdb30958	-0.087420166
126	0x3c422054	0.011848528
127	0x3aaea87b	0.0013325358
128	0x3e0d816b	0.138189
129	0xbdd8d347	-0.10587173
130	0x3d05068c	0.032476947
131	0xbe0dedde	-0.1386027
132	0x3bd34a6a	0.00644808
133	0xbd14b14e	-0.036301903
134	0x3a504c6f	0.000794596
135	0x3d226d57	0.039655056
136	0xbe015719	-0.12630881
137	0x3d540fb3	0.051772784
138	0xbe904a8d	-0.28181878
139	0x3c70ca7b	0.014696713
140	0x3e3572bd	0.1771955
141	0xbdb7d986	-0.08977036
142	0xbddf856c	-0.1091412
143	0x3eb6b500	0.35684967
144	0xbe935f79	-0.28783777
145	0xbea72dc3	-0.326521
146	0xbc2c0577	-0.01049935
147	0x3dd07e7c	0.10180375
148	0x3d2c0ace	0.04200249
149	0x3e1bd8c0	0.15219402
150	0xbea59b1a	-0.32344896
151	0xbd819a39	-0.06328244
152	0xbd35b469	-0.044361506
153	0x3d06b7f8	0.03289029
154	0xbd0d7832	-0.034538455
155	0x3d7144a2	0.058903344
156	0x3e345671	0.176111
157	0xbe27ed9a	-0.16399232
158	0xbe3817a8	-0.17977774
159	0xbbef3698	-0.0073002093
160	0x3db48f52	0.08816399
161	0x3d4fb6eb	0.050711554
162	0x3cd0be48	0.025481358
163	0x3e38e063	0.18054347
164	0x3ecb4997	0.39704582
165	0xbdfba910	-0.122881055
166	0xbe610c0f	-0.21977256
167	0x3df902d0	0.121587396
168	0xbdc48837	-0.095962934
169	0x3d8ff292	0.070286885
170	0x3d10746d	0.035267282
171	0x3c9eb416	0.019372981
172	0x3d8a2968	0.06746179
173	0xbb64d78f	-0.0034918522
174	0xbc9bb67c	-0.019007914
175	0xbd8d5146	-0.06900267
176	0xbeadb844	-0.33929646
177	0x3db2a58e	0.08722983
178	0xbf07113a	-0.5276066
179	0x3c9315db	0.017954757
180	0x3e35141b	0.17683451
181	0xbe45bbd3	-0.1930993
182	0xbe5b9ba6	-0.21446094
183	0xbedcb273	-0.43104896
184	0x3dc302e4	0.09522036
185	0x3dc93a5e	0.09825586
186	0xbe60d14c	-0.2195484
187	0xbf00a57d	-0.50252515
188	0xbee38aae	-0.44441742
189	0x3c8a5a6b	0.016888818
190	0x3cae48e1	0.021274986
191	0xbd742ca4	-0.059612885
192	0x3d62fb57	0.055415478
193	0xbd1d489b	-0.03839932
194	0xbb9fa521	-0.00487198
195	0xbcfaceaf	-0.030616133
196	0xbd398f28	-0.04530254
197	0xbcaa2372	-0.020768855
198	0xbe283cce	-0.16429445
199	0xbe1b99c5	-0.15195377
200	0xbc9cff32	-0.019164655
201	0x3b8ce4de	0.004299744
202	0xbda3ae16	-0.07992189
203	0xbd347025	-0.04405226
204	0xbd87adf7	-0.06624978
205	0xbe0387a9	-0.12844719
206	0xbd25c15d	-0.04046761
207	0x3dbdbdb8	0.092647016
208	0x3d706a93	0.058695387
209	0xbb02f68f	-0.0019983386
210	0x3e59dcdf	0.21275662
211	0xbe86915a	-0.2628277
212	0xbb7da362	-0.003870212
213	0x3e4e9f19	0.20177878
214	0xbead1511	-0.33805135
215	0xbaf1d477	-0.001845016
216	0xbe241106	-0.16022119
217	0x3ca532bc	0.020165794
218	0xbcaa1efb	-0.020766726
219	0x3e000ecd	0.12505646
220	0xbe032d6f	-0.128103
221	0x3d866f9b	0.06564256
222	0x3d835f6c	0.06414685
223	0x3e058ed0	0.1304276
224	0xbde05297	-0.10953253
225	0xbe95c5d2	-0.29252487
226	0x3d71a7ee	0.05899804
227	0xbd0c0c8e	-0.03419166
228	0xbc3c064f	-0.011476113
229	0xbd6632c7	-0.05620077
230	0xbd19cbda	-0.037547924
231	0xbdc33caa	-0.09533055
232	0xbcfbf32d	-0.030755604
233	0xbd928d5e	-0.0715587
234	0xbc8c3142	-0.017113332
235	0xbd86cebd	-0.06582401
236	0x3d6b4470	0.057438314
237	0x3d9e09e5	0.07716731
238	0xbe3fcdf9	-0.18730916
239	0x3ca7c302	0.02047873
240	0x3b19994b	0.0023437317
241	0xbaa44bfd	-0.0012534853
242	0xbed42046	-0.41430873
243	0x3d36beb1	0.04461545
244	0x3ab11499	0.0013510167
245	0xbcfbcc00	-0.030736923
246	0x3e576e72	0.21038225
247	0x3e84f276	0.25966233
248	0xbde68608	-0.11256033
249	0x3defc1ee	0.11706911
250	0x3d2eaa2f	0.04264277
251	0x3e532f01	0.206234
252	0xbcfc600d	-0.03080752
253	0xbbaebf42	-0.0053328583
254	0x3cf25c14	0.029584922
255	0xbceeacff	-0.029135225

fc22.bias f4 [8]
0	0xbf988aa4	-1.191731
1	0xbf880945	-1.0627829
2	0xbfbe3981	-1.4861299
3	0xbfa13f11	-1.2597371
4	0xbfb2bd30	-1.3963985
5	0xbfcc8718	-1.5978727
6	0xbfce27f1	-1.6105939
7	0xbfeea6af	-1.8644618
